models/m9/files/best.onnx (onnx, 626197 bytes, 149 tensors)

model.bn.weight f4 [128]
000000 e2 a3 8c 3e 48 89 74 3e 56 0a 89 3e 3b eb 88 3e
       0.27468783 0.23880494 0.26765698 0.26741967
000010 2b ad 87 3e 61 5f 8e 3e 64 a7 86 3e 4a f7 8c 3e
       0.26499304 0.27807143 0.26299584 0.27532417
000020 01 da 89 3e b4 1f 8c 3e 8e 2a 7e 3e b0 93 70 3e
       0.26924136 0.27367938 0.24820921 0.23493838
000030 64 c9 84 3e ad 62 81 3e 7c 81 6e 3e aa ce 88 3e
       0.259349 0.25270596 0.23291582 0.26720172
000040 d4 6b 95 3e ef c2 82 3e a9 3f 89 3e 02 f2 8a 3e
       0.2918383 0.25539348 0.2680638 0.27137762
000050 f7 c2 82 3e 8d e3 89 3e 75 29 86 3e b9 a5 81 3e
       0.2553937 0.2693142 0.26203504 0.2532175
000060 ea ca 71 3e 38 5b 88 3e 48 5b 76 3e ba fa 88 3e
       0.23612562 0.26632094 0.24058259 0.2675379
000070 12 96 87 3e df fe 91 3e d2 43 81 3e 5f 22 89 3e
       0.26481682 0.28514764 0.25247055 0.26784036
000080 45 c8 72 3e b9 e9 87 3e 05 1e 65 3e 7f 2d 8c 3e
       0.2370921 0.26545504 0.22374733 0.2737846
000090 a3 45 84 3e 58 13 89 3e da ce 96 3e 79 0c 89 3e
       0.2583438 0.2677257 0.2945469 0.26767328
0000a0 14 41 84 3e 63 a1 8b 3e 0c cf 88 3e e9 c4 87 3e
       0.258309 0.27271566 0.26720464 0.26517418
0000b0 f7 5b 87 3e 86 d4 79 3e 0f f3 8e 3e ff d6 88 3e
       0.2643735 0.24397478 0.27919814 0.2672653
0000c0 0f 49 6d 3e fe bc 6b 3e 90 ee 83 3e 24 a8 80 3e
       0.23172401 0.23021314 0.25767946 0.2512828
0000d0 e0 d5 8c 3e b9 40 7f 3e 7e 40 78 3e ea f2 8a 3e
       0.27506924 0.24927033 0.24243352 0.27138454
0000e0 04 bd 80 3e 94 07 83 3e 09 8c 88 3e e7 5a 7e 3e
       0.25144207 0.2559172 0.26669338 0.24839364
0000f0 b9 b7 84 3e 53 de 8d 3e 70 44 92 3e 8a 61 8f 3e
       0.2592142 0.27708682 0.2856784 0.28004104
000100 a0 4a 8c 3e d1 4f 86 3e 9f 41 8c 3e 7d d3 8e 3e
       0.27400684 0.2623277 0.27393815 0.27895728
000110 d3 b4 85 3e 30 7d 83 3e ef d0 7a 3e 1f 41 89 3e
       0.2611452 0.25681448 0.24493764 0.26807496
000120 0d d4 84 3e 14 14 80 3e 89 5e 90 3e 49 39 8e 3e
       0.25943032 0.25015318 0.28197125 0.2777808
000130 8c 9e 8d 3e 21 13 80 3e af da 80 3e 14 a6 8d 3e
       0.27660024 0.25014594 0.25166842 0.2766577
000140 dd c2 85 3e fb b4 84 3e bc 22 8b 3e a0 df 82 3e
       0.2612523 0.25919327 0.27174938 0.25561237
000150 86 47 85 3e 9d 2b 7f 3e 58 3a 8a 3e b2 61 8f 3e
       0.2603113 0.24918981 0.26997638 0.28004223
000160 95 0a 74 3e 4b d1 83 3e fb 08 87 3e c7 0b 86 3e
       0.23832162 0.25745615 0.2637404 0.2618086
000170 30 e5 83 3e 08 0d 84 3e a8 13 8e 3e 50 dd 8e 3e
       0.25760794 0.25791192 0.27749372 0.27903223
000180 eb fb 82 3e 02 fb 92 3e 7c ac 80 3e fd 85 88 3e
       0.25582823 0.2870713 0.25131595 0.26664725
000190 f5 f8 8a 3e 74 91 83 3e d6 a7 83 3e ea 34 84 3e
       0.27143064 0.2569691 0.25713986 0.2582162
0001a0 aa 7d 72 3e 5e 6a 84 3e de 53 89 3e 63 a4 8e 3e
       0.2368075 0.25862402 0.26821798 0.27859792
0001b0 a8 a4 88 3e db 5a 92 3e a7 8a 94 3e a9 4c 88 3e
       0.26688123 0.28584942 0.29012033 0.26620987
0001c0 91 56 80 3e f4 25 88 3e 5d 70 90 3e 46 11 89 3e
       0.25066045 0.26591456 0.28210726 0.2677099
0001d0 2c 23 88 3e c5 31 6d 3e 6c 17 7b 3e 91 e8 67 3e
       0.26589334 0.23163517 0.24520653 0.22647311
0001e0 e8 c8 76 3e ed da 65 3e 1d 2a 72 3e 1f 6c 77 3e
       0.24100077 0.22446795 0.23648877 0.24162339
0001f0 c2 a0 82 3e 08 f3 80 3e e0 16 8b 3e d1 eb 82 3e
       0.25513273 0.25185418 0.2716589 0.2557054

model.bn.bias f4 [128]
000000 48 4b da 3c 4b 16 40 bc 1e d4 c8 3c a1 4d 99 3c
       0.026647225 -0.011724065 0.024515208 0.018713774
000010 3f 62 e5 bc 94 8e bd 3c 29 0d 02 3d 88 4e 9e bc
       -0.028000949 0.023139276 0.03175083 -0.019324556
000020 42 02 0f 3d ea d4 6f bc 3f f4 c1 3c 16 5f 31 3c
       0.034914263 -0.014638165 0.023676036 0.010825893
000030 7e 8e f8 3b 0d ac e3 3c e7 91 a0 3c 85 5a c7 bc
       0.007585346 0.027792001 0.019600822 -0.024335155
000040 fa 40 80 bc 7a 74 8f 3c ac 0e 5d bc 23 4b af 3c
       -0.015655983 0.017511595 -0.013492268 0.021398133
000050 5a f4 85 bc eb 3e c5 bc ce 21 b3 bc 27 71 ae 3c
       -0.016351867 -0.024077853 -0.021866705 0.02129419
000060 df 09 7d bc 4b b9 16 3c d2 af a2 3c c3 2d 30 bc
       -0.015444248 0.009199451 0.019859228 -0.010753098
000070 ad 59 05 3d 63 69 08 3d 63 c1 0f bd ea 78 dd 3c
       0.032556225 0.03330363 -0.035096537 0.027035195
000080 1e fe 80 3c 3e 1f c5 bc fa 1d bd bc 6c fa 92 3c
       0.015746173 -0.024062749 -0.023085583 0.017941676
000090 a0 ad d9 bc 4c b3 8e 3c 00 7c 27 3c ee f3 d1 3c
       -0.026572049 0.01741948 0.010222435 0.02562901
0000a0 af 2b fe bc 19 73 c6 3c 83 7f 05 3d f5 1a ba bc
       -0.03102669 0.024224805 0.032592308 -0.022717932
0000b0 33 2f 48 3c 3d 8a af bc 40 0d bb 3c 6a 62 fa bc
       0.012218284 -0.021428222 0.022833467 -0.030564506
0000c0 7b 19 dc bc 27 fb f4 3c 28 ae 02 3d 80 fb cf bc
       -0.026867619 0.029904915 0.03190437 -0.02538848
0000d0 55 45 f2 bc 3f 91 97 bc 28 ea 09 3d 4f 39 cb 3c
       -0.029574076 -0.018501876 0.033670574 0.0248076
0000e0 d0 5f 65 3c 89 c8 0b 3d 74 45 77 bc 69 bc 0e bd
       0.013999894 0.034126792 -0.0150922425 -0.03484765
0000f0 38 c5 09 3d 94 dd ef bc f1 8d 33 bd 75 91 d1 3c
       0.033635348 -0.029280461 -0.043836538 0.025582055
000100 4b 34 a2 3c 8b b8 c0 bc d2 8c b6 bc b6 11 cd bc
       0.019800326 -0.023525497 -0.022283945 -0.02503286
000110 56 c7 dc bc 84 c1 fb 3c 10 a7 91 bc cf 8d 1e 3d
       -0.02695052 0.030731924 -0.017779857 0.038709458
000120 de 23 82 bc c3 a9 94 3c 03 62 df 3c 0d fe 9d bc
       -0.015886243 0.018147355 0.027268415 -0.01928618
000130 5b 4e 6f 3c 68 4b c5 3c 21 df d2 bc c6 2a ba bc
       0.014606084 0.024083808 -0.025741162 -0.022725474
000140 17 21 af bc 64 59 99 3c 6f 62 d4 bc 5d 44 9f bc
       -0.021378083 0.018719383 -0.025925843 -0.019441778
000150 fd 0e ca bc 51 95 bc 3c 1f 4b 38 3c a9 62 66 3c
       -0.02466535 0.023020418 0.011248379 0.014061608
000160 34 2e b0 3c 27 b0 b2 bc dc 02 a3 3c 0a e6 a6 3c
       0.021506406 -0.021812512 0.019898824 0.020373363
000170 f6 35 9a bc eb 38 81 3c fe 6c 1e bd c6 e6 d1 bc
       -0.018824559 0.01577421 -0.03867816 -0.025622737
000180 12 99 81 3c 53 4d 00 bd 44 2d df bc f7 0d ec bb
       0.01582006 -0.031323742 -0.027243264 -0.007203813
000190 fa f0 b3 bc 2c 57 cc 3c ea e5 8e 3c b5 7b ee 3c
       -0.021965493 0.02494391 0.017443616 0.029111722
0001a0 b6 72 1b bb b3 99 a5 3c 29 f3 dd bc df 3f 0d 3d
       -0.0023719496 0.020214891 -0.027093487 0.03448474
0001b0 52 da d0 3b b0 10 e4 bc 1f 50 c4 bc 8e b9 0f 3c
       0.006373682 -0.027839988 -0.023963986 0.008772267
0001c0 e0 79 45 3c 6e ce 98 3c ad b7 85 3c 7b 59 0c 3d
       0.012052983 0.01865312 0.016322935 0.034265023
0001d0 99 f4 e2 3c 70 4a f2 bc ba 4e a4 3c f3 ef 80 bc
       0.027704524 -0.02957651 0.020057071 -0.015739417
0001e0 53 2d 94 3c 62 74 b6 bc c8 28 d5 bc d7 3d bd 3c
       0.018088019 -0.022272293 -0.026020423 0.023100777
0001f0 64 4b b2 3c 6d 73 54 bc 98 a6 7f 3c fe 01 b5 3c
       0.021764465 -0.012966973 0.015603684 0.022095677

model.bn.running_mean f4 [128]
000000 31 ca 0a 30 69 a3 eb af 8d 17 32 30 b7 4a e2 2f
       5.049144e-10 -4.286236e-10 6.478949e-10 4.1162249e-10
000010 b3 ad a0 2f d4 89 c7 2f 2b 97 ef 2f 43 c0 05 30
       2.922725e-10 3.6295822e-10 4.3581258e-10 4.865834e-10
000020 37 e4 b3 30 a7 c0 ae ae c1 60 b0 af 46 a9 0d 30
       1.3088827e-09 -7.946826e-11 -3.208296e-10 5.1536053e-10
000030 9e f8 85 ae 59 06 8b b0 6e 28 27 30 42 0b 69 2f
       -6.092303e-11 -1.0115385e-09 6.08117e-10 2.1195226e-10
000040 f8 70 7a b0 84 67 7a 2f 38 fc 50 b1 3a 6a eb ae
       -9.111001e-10 2.2774144e-10 -3.0411353e-09 -1.07054324e-10
000050 4e a5 54 30 a9 fe 47 30 5a c9 d7 b0 de 01 6d 30
       7.7360063e-10 7.275767e-10 -1.5700536e-09 8.622275e-10
000060 95 64 91 b0 5e f3 99 30 ee 69 83 b0 22 42 b1 2f
       -1.0578726e-09 1.1201384e-09 -9.561612e-10 3.2243103e-10
000070 21 f6 99 b0 0b d1 4e b0 43 9e 92 af 2a 9a b6 30
       -1.1202169e-09 -7.523943e-10 -2.6669697e-10 1.3286059e-09
000080 de a2 d0 2f 6b d0 38 b0 dd 40 b3 af 5f e5 01 b0
       3.7950704e-10 -6.723499e-10 -3.2605998e-10 -4.725588e-10
000090 7a fa 9c b0 c8 1d fc 2f b7 b7 81 30 13 70 72 2f
       -1.1421684e-09 4.5859694e-10 9.4382e-10 2.2049589e-10
0000a0 51 f6 c2 30 f9 2e 5c 2f fb d5 93 2f ea 7c 1f 30
       1.4185365e-09 2.0025571e-10 2.6891186e-10 5.8021377e-10
0000b0 e7 cd e0 b0 73 49 b3 30 b1 f1 80 30 84 f7 dc 2f
       -1.6356666e-09 1.304484e-09 9.381919e-10 4.0193637e-10
0000c0 77 db 2b b0 c4 52 e5 2f ed 38 2d af ce e0 34 af
       -6.2521316e-10 4.1713666e-10 -1.5754482e-10 -1.6450771e-10
0000d0 87 f5 c1 30 25 6d 4b af 2e 4e 0f 30 ed db 16 b1
       1.4112381e-09 -1.8501518e-10 5.2134197e-10 -2.1952886e-09
0000e0 3f 50 d7 af b8 f7 99 af c6 8a b2 2f 76 20 36 b0
       -3.916529e-10 -2.8006553e-10 3.2476616e-10 -6.6257344e-10
0000f0 cc 90 9c 2f b3 f8 ef 2f 47 f0 03 af ab 5c 99 30
       2.847912e-10 4.3650558e-10 -1.1999744e-10 1.1158553e-09
000100 5e 0f 20 2d 7e 81 ff af 1c 80 88 b0 0c ad 49 af
       9.098359e-12 -4.647624e-10 -9.931713e-10 -1.8342322e-10
000110 ac 0c 03 b0 06 6f e1 b0 06 c0 60 30 de f9 fe 2f
       -4.767553e-10 -1.6402459e-09 8.1763607e-10 4.6379872e-10
000120 08 85 1e b0 54 91 c8 30 44 05 37 b0 a8 6d 5e b0
       -5.7669114e-10 1.459322e-09 -6.6582495e-10 -8.091896e-10
000130 10 f1 c4 30 ff 63 58 2f 1a b5 82 ae 4f 3e 96 b0
       1.4329391e-09 1.9680611e-10 -5.943886e-11 -1.0931646e-09
000140 1b fd 36 b0 6c 8c 48 af 1b ef df 2f 0c 0a 37 2f
       -6.65709e-10 -1.8239782e-10 4.0733358e-10 1.6647322e-10
000150 c5 4a 05 30 f7 a9 4e b0 58 d0 6a 30 55 8a 7a b0
       4.849137e-10 -7.51839e-10 8.542478e-10 -9.114605e-10
000160 9d 68 a8 30 6f b7 b7 b0 ce 41 73 b0 e5 f8 96 30
       1.2253342e-09 -1.3367137e-09 -8.84964e-10 1.0984677e-09
000170 3f 89 5b af 24 2b 1a b0 48 0d 8e 30 f7 36 d4 b0
       -1.9966694e-10 -5.608618e-10 1.0335635e-09 -1.5440652e-09
000180 83 ef a0 b0 2a 6c ac b0 25 b1 ab af 59 50 de af
       -1.1709606e-09 -1.2545389e-09 -3.1230588e-10 -4.0438655e-10
000190 ce c3 3c af 24 28 83 2b 0e 20 b1 af f9 ba 98 af
       -1.7168064e-10 9.319251e-13 -3.221889e-10 -2.778149e-10
0001a0 b1 34 00 b1 41 cc e1 af 01 54 b0 ae 45 9a f2 b0
       -1.8656403e-09 -4.1072393e-10 -8.0184755e-11 -1.7651663e-09
0001b0 d0 33 2d 31 5b 3e c5 b0 72 e3 ac af 5d 76 30 30
       2.5204265e-09 -1.4351359e-09 -3.1448227e-10 6.419663e-10
0001c0 02 12 47 b0 d1 6b 9d 30 2d e5 2e 30 15 90 5a 30
       -7.242137e-10 1.1453897e-09 6.362651e-10 7.951269e-10
0001d0 c0 62 48 af c1 b2 9a 2f d9 5f 9f 2f b0 bb 68 af
       -1.8224977e-10 2.813945e-10 2.8990035e-10 -2.1166957e-10
0001e0 a8 1a 8d af 1d 1c 51 30 c4 95 47 b0 be de 53 30
       -2.566669e-10 7.607371e-10 -7.260861e-10 7.707789e-10
0001f0 03 65 03 31 76 1e 84 af 4f 23 80 30 73 87 b8 30
       1.9120427e-09 -2.4032304e-10 9.323261e-10 1.3426259e-09

model.bn.running_var f4 [128]
000000 9d ae f9 39 e1 a6 c2 39 50 7e de 39 91 ec 01 3a
       0.00047623078 0.00037126898 0.0004243725 0.00049562106
000010 9f 84 c0 39 b9 12 ef 39 ba c0 e8 39 92 d7 19 3a
       0.00036719904 0.00045599582 0.0004439408 0.00058686093
000020 4c a4 f6 39 8a 87 0a 3a ba a5 d7 39 d8 30 c5 39
       0.00047043187 0.0005284479 0.00041131472 0.0003761116
000030 59 72 f0 39 0d eb b5 39 7c d5 9c 39 f2 bd b5 39
       0.00045861563 0.00034698137 0.00029913697 0.0003466453
000040 7c 23 f8 39 bf 76 d7 39 48 ce f0 39 96 eb fb 39
       0.00047328684 0.00041096468 0.0004593006 0.00048049976
000050 8e 12 d1 39 dc b4 e7 39 d9 58 04 3a c9 cb ff 39
       0.0003987741 0.00044194504 0.000504864 0.00048789222
000060 1b 9f 9a 39 21 c6 d3 39 85 19 aa 39 de 14 f4 39
       0.00029491712 0.00040392674 0.0003244394 0.00046554854
000070 7f e2 e0 39 02 54 03 3a 1f c4 d5 39 08 93 bc 39
       0.00042893362 0.00050097716 0.00040772647 0.000359677
000080 bd 14 bf 39 1c 1f 05 3a c1 40 c8 39 6f c6 f2 39
       0.0003644581 0.0005078183 0.00038195218 0.00046305681
000090 3f 80 db 39 13 c5 d6 39 6b de 03 3a 31 ed e7 39
       0.00041866486 0.00040964092 0.0005030396 0.00044236475
0000a0 71 ab 06 3a e6 a5 35 3a cb b4 e0 39 e9 b9 09 3a
       0.0005137241 0.0006929323 0.0004285931 0.0005253838
0000b0 63 d5 fe 39 47 5c b1 39 2f eb fd 39 f4 bf f0 39
       0.0004860564 0.00033828823 0.00048431146 0.00045919383
0000c0 cf e4 8a 39 fa 46 ca 39 3b bd b6 39 3a 8d a9 39
       0.00026491887 0.00038581324 0.00034854733 0.00032339414
0000d0 5d 30 09 3a ab b1 9b 39 69 b7 ba 39 48 de fe 39
       0.0005233342 0.00029696277 0.00035613336 0.00048612268
0000e0 3c cf e6 39 cd 4c c4 39 ac a3 de 39 f5 28 e1 39
       0.0004402342 0.00037441254 0.00042465085 0.0004294586
0000f0 ec 33 f6 39 dc 39 0a 3a 1c 1c 1a 3a 2e 5f 06 3a
       0.0004695946 0.0005272904 0.00058788224 0.0005125877
000100 8a 08 0e 3a 57 c4 d9 39 de 31 fa 39 77 a1 f1 39
       0.00054181425 0.0004153575 0.0004772087 0.00046087403
000110 28 19 db 39 87 ba e8 39 d9 af ca 39 97 54 e7 39
       0.00041789678 0.00044389462 0.0003865946 0.00044122778
000120 a8 ca 00 3a 99 73 b4 39 ae a0 02 3a dc 3b 15 3a
       0.00049130106 0.00034418402 0.00049830496 0.00056928187
000130 db 97 ea 39 e1 87 a9 39 9b c2 07 3a 62 6f e7 39
       0.000447451 0.0003233543 0.000517884 0.0004414274
000140 04 c9 e7 39 8d 18 a2 39 c7 30 c6 39 b6 bb af 39
       0.00044209522 0.0003091734 0.00037801845 0.00033518457
000150 90 f1 f0 39 e9 f8 e8 39 40 a1 eb 39 72 b1 e1 39
       0.00045956345 0.0004443594 0.00044942833 0.0004304755
000160 f7 ab d4 39 32 f2 c8 39 ea 2c d5 39 63 da af 39
       0.00040563915 0.00038327422 0.0004065999 0.00033541312
000170 3f 9b c4 39 b9 21 ae 39 8d f8 ee 39 31 de db 39
       0.000374997 0.00033212992 0.00045580082 0.0004193648
000180 c2 bc e8 39 42 67 15 3a 05 2f c4 39 26 33 b7 39
       0.00044391124 0.00056992855 0.00037419065 0.00034942589
000190 d1 64 ff 39 c9 c9 c0 39 e3 f9 cf 39 e7 f3 c3 39
       0.00048712504 0.00036771435 0.00039668297 0.0003737502
0001a0 95 9a be 39 93 77 e2 39 55 8a e0 39 db 9f 01 3a
       0.00036354797 0.0004319517 0.00042827675 0.000494478
0001b0 e8 ef e2 39 c5 33 f9 39 81 7b 0a 3a a7 df e7 39
       0.00043284823 0.00047531552 0.0005282686 0.00044226387
0001c0 09 cb b0 39 f0 f0 d6 39 56 e3 fa 39 c8 7a da 39
       0.0003372061 0.00040996773 0.00047853094 0.0004167168
0001d0 c9 6b 0a 3a 40 81 aa 39 d3 37 d4 39 cb fb 9a 39
       0.00052803435 0.00032521226 0.00040477383 0.0002956077
0001e0 7a e2 cb 39 f6 91 b4 39 57 1a bc 39 90 c1 a3 39
       0.00038887915 0.00034441025 0.0003587778 0.00031233998
0001f0 1f 72 bb 39 2a 0b 94 39 15 0e 00 3a 9a a2 cf 39
       0.00035752446 0.00028237078 0.0004884911 0.00039603264

onnx::Conv_642 f4 [32]
000000 cc d3 8f bb ec f4 55 3e 85 34 94 bb 26 1d b1 3d
       -0.004389262 0.20894212 -0.0045228624 0.08648138
000010 1d 75 96 be 4e de 66 be e6 47 33 3d bd 67 54 3e
       -0.29386225 -0.2254574 0.04376974 0.20742698
000020 51 78 9d 3d c9 ae c4 3d 50 c6 22 3c 16 d3 13 3d
       0.07688964 0.0960365 0.009934977 0.03608998
000030 4e 7c 34 3e 7a 54 4f 3e 82 93 6b be 99 f0 a4 bb
       0.17625543 0.20247069 -0.23005489 -0.0050335643
000040 c4 bf 71 3e 3d 61 06 3e 50 e3 07 be 1c 79 44 bb
       0.23608309 0.13123031 -0.13270307 -0.0029979413
000050 17 7b 22 ba 62 fe 07 bc 34 a7 30 3e 20 a4 cd bb
       -0.00061981514 -0.008300396 0.17251283 -0.0062756687
000060 4f 80 c3 3a 7b 2c a4 3e 20 4e c2 3d ca 66 4d bb
       0.0014915558 0.32065186 0.094875574 -0.0031341785
000070 f2 56 78 3d 96 46 63 3e 51 b6 3f bb 31 5e a6 3e
       0.060629793 0.22194895 -0.0029252956 0.32493737

onnx::Conv_645 f4 [32]
000000 95 a4 46 bb 0c 37 06 3d a0 42 2f bb 55 75 fd 3d
       -0.00303105 0.03276734 -0.0026742592 0.12375895
000010 da e7 38 3e 50 90 de bb bd a3 af 3d 6d 68 9f be
       0.18057194 -0.0067921057 0.085761525 -0.31134358
000020 07 65 87 3e 85 ba 02 be 00 dd 53 3b 3e 26 b6 3d
       0.26444265 -0.12766464 0.0032327771 0.08894013
000030 7e f9 67 3d dc 32 ac 3d e0 dd a8 3a 1f 3f 4b bb
       0.05663442 0.08408138 0.0012883507 -0.0031012965
000040 3a 91 59 3e 8c fd d1 bb 1f d1 0d 3e 07 1d 0a bb
       0.21246806 -0.006408399 0.13849305 -0.002107443
000050 00 f5 7e ba 0e 6f 99 bb f2 65 c6 3e 18 93 cb bc
       -0.0009725839 -0.004682428 0.38749653 -0.024850413
000060 f8 76 be ba 3a 3e aa bd f4 50 0b 3e 02 b2 1d bb
       -0.0014531305 -0.0831265 0.136051 -0.00240624
000070 3a 3d 8c 3d ea 1b 49 be 5c 60 9e ba 46 7d 1d 3d
       0.068476155 -0.19639555 -0.0012083161 0.03844955

onnx::Conv_648 f4 [103]
000000 7e 32 8a 3d b2 a5 b2 bc 51 8a bb bd 85 cf d0 3c
       0.06747912 -0.021807525 -0.09157241 0.025489578
000010 39 91 89 3d a8 c8 62 3d 2b 02 8e 3d 14 78 21 bc
       0.06717152 0.055367142 0.06934007 -0.009855289
000020 9d 3f b6 3d 29 c0 30 3d 92 e5 f3 3d e0 e0 4e 3c
       0.08898852 0.04315201 0.119090214 0.012626857
000030 97 cf 16 3e ef 1d 0e 3e 72 66 a1 3d 7b 48 c2 bc
       0.14727627 0.13878606 0.07880868 -0.023716202
000040 9e 5a da 3d a6 18 ec 3d b5 68 79 3d 50 96 25 3e
       0.10661815 0.11528139 0.060890872 0.16170621
000050 ae 0a f2 3d 1b 0a 0a bc 74 cf 14 bc e4 65 4d bc
       0.11818443 -0.008425261 -0.009082664 -0.0125365
000060 50 3c 7d 3d 2a e4 3c be 38 b2 8b 3d f2 56 2e 3c
       0.061825097 -0.18446413 0.06821102 0.010640847
000070 e0 98 0e 3d 24 63 e9 3d 48 12 d0 bc ac b1 86 bc
       0.03481376 0.11395863 -0.025399342 -0.016442142
000080 45 35 0d 3e bc 40 13 bd 66 a1 9e 3d 06 6b b1 3d
       0.13789852 -0.035950407 0.07745628 0.08662991
000090 d0 eb 75 bb a5 34 12 3e 61 8d 03 3d d0 5d 53 be
       -0.0037524588 0.14277895 0.03211725 -0.20641255
0000a0 5e b1 00 3c 50 ae ca ba f5 09 3f 3e b7 61 3b 3d
       0.007854788 -0.0015463326 0.18656142 0.045747485
0000b0 a5 0b 92 3d 55 78 55 bd 00 6e 1b bc a2 ff 26 3d
       0.07131127 -0.05211671 -0.009486675 0.040771134
0000c0 66 be 65 3c ae 52 63 bd 18 08 c0 3d 2e ac 32 bd
       0.014022445 -0.05549877 0.09376544 -0.043621235
0000d0 d6 6a 10 bc 34 ce 06 3e 62 8d 85 3d f6 18 b7 3d
       -0.008814534 0.13164598 0.06521107 0.08940308
0000e0 b1 3e 6e bc 20 3e 91 bb f9 0e ae bd 4a 24 a7 3d
       -0.014541314 -0.0044324547 -0.084989496 0.081612185
0000f0 1f 94 51 bd a0 5a 20 3e 12 34 c4 bc a2 98 f1 3d
       -0.05116665 0.1565957 -0.02395061 0.117966905
000100 cd e1 06 bc d4 cb e9 bc e8 39 13 3d fb ba 8b 3d
       -0.008232546 -0.028539576 0.035943896 0.06822773
000110 6c 25 58 bc eb b8 9d be d2 74 08 3e da 2d 2f 3e
       -0.013192516 -0.30805144 0.13325813 0.17107335
000120 00 e9 1e 3e 50 58 39 3d 4a b5 64 3d 03 65 a8 3d
       0.1551857 0.045250237 0.055836953 0.082223915
000130 2c e2 07 be 24 ab c8 bd 60 f6 37 3d 46 cc 3e bd
       -0.13269871 -0.097982675 0.044912696 -0.04658153
000140 b0 dd 17 3e fd f7 64 bc c0 73 bb bd 49 ac 5a 3c
       0.14830661 -0.013975141 -0.09152937 0.01334674
000150 b8 f4 d9 3d 3c c0 e8 bb 88 18 32 bc 62 4b 1f 3c
       0.106423795 -0.0071029942 -0.0108701065 0.0097225625
000160 92 52 e6 bc ac 80 12 3e a7 e7 28 3e a2 89 64 3d
       -0.028115544 0.14306897 0.16494618 0.05579532
000170 16 d7 00 3e 1f 66 87 3d a9 f3 de bc 3b 66 94 3d
       0.12582049 0.06611275 -0.027215796 0.072460614
000180 4e 88 b0 bb 72 ec 8d bb 4a 2d 20 3e 02 fb 2a bc
       -0.0053873425 -0.004331165 0.15642276 -0.0104358215
000190 64 6a 12 bd eb 61 e3 3d bf 85 2b 3e
       -0.035745993 0.11102661 0.16750239

onnx::Conv_651 f4 [103]
000000 7f 3d f6 3d 70 71 eb bb da 64 f2 3d 6f e9 f1 bc
       0.12023448 -0.0071851537 0.11835642 -0.029530255
000010 52 9b d6 bd 87 35 f0 3c 09 33 3e be 5a f8 2f 3e
       -0.10478844 0.029322399 -0.18574156 0.17184582
000020 9e e0 81 bc f3 35 8a 3e 1d c6 cb 3d df d8 fd 3d
       -0.015854176 0.26994285 0.099498965 0.123948805
000030 44 d5 b7 3d 66 5f bb 3a 77 c5 80 3c 01 bc 81 bc
       0.08976224 0.0014295399 0.015719159 -0.015836718
000040 c6 03 41 3e 98 3b b6 3b 62 d7 f1 3d 63 0b b6 3c
       0.18849096 0.0055613033 0.11808659 0.022222226
000050 93 40 62 3c bf d8 78 3b 13 93 be 3b cf c0 1a 3d
       0.013809341 0.0037970988 0.0058158725 0.037781533
000060 90 bb 3a be 84 cf 36 3e a4 3e 3d bd 92 47 16 bc
       -0.18235612 0.17852598 -0.046202317 -0.009172337
000070 b6 7d 08 3e 40 a4 9f 3b c7 c4 80 bc e8 8b c1 bc
       0.13329205 0.004871875 -0.01571883 -0.023626283
000080 9b 4f d2 3d ef 67 d7 3d a9 94 85 3e e9 91 43 bc
       0.1026909 0.10517871 0.2608998 -0.011936643
000090 96 0c d3 ba d8 a2 8d ba 58 2b 88 bd 49 1c 89 3e
       -0.0016101773 -0.0010805978 -0.06648892 0.26779392
0000a0 4d c1 c7 3d a0 89 11 3c 2d 09 c0 3e 49 10 64 bc
       0.09753666 0.00888291 0.37507 -0.013919898
0000b0 d1 58 da 3d 8a 91 27 bd 31 bc 04 3e bc 4a 6b 3e
       0.10661472 -0.04091028 0.12962414 0.22977728
0000c0 fa 05 31 3d 00 90 a6 b8 20 ee dc 3b 39 fa 3c 3e
       0.04321859 -7.942319e-05 0.006742254 0.18454827
0000d0 72 7c b3 bb 7a 23 09 3d 46 24 e7 3d 37 3b a6 3d
       -0.0054774815 0.0334811 0.112862155 0.08116763
0000e0 44 ac a5 3d 18 4f 99 3d a4 3a 25 3e e1 08 08 3d
       0.08089498 0.07485789 0.16135651 0.033211593
0000f0 0b 51 05 3e b4 b1 61 3c 19 19 93 bc e0 f3 7b 3d
       0.13019197 0.013775278 -0.017956303 0.061511874
000100 8f e9 be ba 86 2e 02 3e a1 a4 9a 3d c8 6f 99 3d
       -0.0014565455 0.1271306 0.07550932 0.07492024
000110 48 ab 00 bc 2d 09 3e 3e bd 58 63 3e b3 09 c8 3d
       -0.007853337 0.18558188 0.2220182 0.09767475
000120 0c cb 94 3d 40 4d 8d 3c 7f 68 10 3e 90 fe 06 bc
       0.072652906 0.01724875 0.14102362 -0.008239403
000130 09 0b e7 3d 16 3b bb bd a4 e0 af 3d 89 38 1e 3e
       0.11281402 -0.09142129 0.08587769 0.15451254
000140 2c d4 8a 3d 4c 17 05 3e 57 73 f3 3d e5 bf 9e bd
       0.0677875 0.12997168 0.11887234 -0.07751445
000150 fa c0 da 3d b9 24 5d bb 84 b3 0d 3e 30 8b 77 bb
       0.106813386 -0.0033743812 0.13838011 -0.0037772171
000160 2c a4 c5 bc 20 bd 88 ba ff 7f f6 3d 41 d6 90 3e
       -0.024126135 -0.001043234 0.12036132 0.28288463
000170 c4 95 d6 3d 2c 3e bc bb a8 fd 72 bc 07 4e e1 3d
       0.10477784 -0.005744716 -0.014830984 0.11001211
000180 cd 89 43 bb 2d 53 af bb b2 5b cb 3d ec 91 d4 bb
       -0.0029836774 -0.0053504915 0.09929599 -0.006487122
000190 be 15 13 3e 6e 77 ce 3d 98 23 8b 3c
       0.14363763 0.10081373 0.016984746

onnx::Conv_654 f4 [64]
000000 83 87 67 bd ac ae 91 3d 1c 5a 53 be 94 cd cd bd
       -0.05652572 0.07113394 -0.20639843 -0.100489765
000010 b1 58 63 3c 83 0d a7 3b 95 69 8b bb 7b fc a1 3d
       0.013876126 0.0050980463 -0.0042545297 0.07909485
000020 1c a4 0a be 04 19 1b 3c 53 c9 03 3e f6 b7 55 3d
       -0.13539165 0.009466413 0.12869768 0.052177392
000030 16 6b 17 3d 82 4f 52 bc 05 a0 88 3d e9 40 40 3e
       0.03696736 -0.012836339 0.06671146 0.18774761
000040 60 20 aa bc 27 b1 78 be c8 63 95 bb cb e1 34 bc
       -0.02076739 -0.24286328 -0.004559014 -0.011040161
000050 73 96 bd bd e3 48 9c 3d b8 fa a8 bc 6a d3 19 3e
       -0.092572115 0.076310895 -0.020627365 0.15022054
000060 a3 d5 74 bc fb 89 99 bc 20 c0 22 3e ce 0e 04 be
       -0.014943513 -0.018742552 0.15893602 -0.12896273
000070 57 e7 58 bd b6 35 67 be 59 e3 85 3c d1 ef 04 3d
       -0.052954998 -0.22579083 0.01634376 0.03245527
000080 04 e4 3e ba 20 df 3f be 77 1c d4 bd 35 5c 07 bd
       -0.0007281902 -0.18737459 -0.10356992 -0.03304692
000090 49 bd bc bc f4 ff ac bd 44 47 88 be ce 89 8e 3d
       -0.023039477 -0.08447257 -0.2661687 0.06959878
0000a0 15 f2 32 3e db 7a cd bd 8d cf 24 bb d9 fb 47 3d
       0.1747516 -0.100331984 -0.0025148124 0.048824165
0000b0 0a 01 37 3e 03 ca c6 bd d9 1c 56 bd 55 63 95 be
       0.1787149 -0.097064994 -0.052273605 -0.29177347
0000c0 df 95 80 3d 4f 63 eb bd e7 14 dc bd 0a 15 1a be
       0.06278586 -0.11493551 -0.10746174 -0.15047088
0000d0 40 91 88 3d a1 30 d0 bd c7 97 79 be 98 12 43 be
       0.06668329 -0.10165525 -0.24374305 -0.19050062
0000e0 cb 4f 81 be 90 7c 04 bd d5 db 82 bd ad 7b 41 3c
       -0.2525619 -0.032345355 -0.06389586 0.011809272
0000f0 98 0b a8 39 b5 ee 0c 3e 3a 7d 32 3e a0 18 81 be
       0.00032052095 0.13762935 0.17430583 -0.252141

onnx::Conv_657 f4 [13]
000000 e8 1a 4e 3d 97 cd 7b bd b0 1e aa 3d aa 00 8c 3a
       0.05031863 -0.061475363 0.083066344 0.001068135
000010 07 1d 6d 3d 59 f7 f0 3b bd f7 c3 3d 5b da 6b 3d
       0.05788901 0.007353705 0.09568737 0.057581287
000020 d3 99 bc 3d 67 5c 76 3b 8a e2 0d 3e 05 00 cb ba
       0.09209027 0.0037591697 0.13855949 -0.0015487677
000030 c8 d6 8e 3d
       0.0697456

onnx::Conv_660 f4 [13]
000000 ba 3d 34 bd c2 eb 9e 3d 4b 0a 75 3d 5a 19 a7 3c
       -0.04400418 0.07759811 0.05982427 0.02039783
000010 de 11 28 3d a8 c4 0c 3e b6 e3 f4 3d ab 62 ac 3d
       0.041032664 0.13746893 0.11957495 0.08417257
000020 f0 ec c2 3c 4c d5 30 3d be e8 7f 3d bd a1 6a 3b
       0.023794621 0.043172166 0.06247782 0.003580197
000030 c1 28 02 3e
       0.12710859

onnx::Conv_663 f4 [64]
000000 7d 7a a0 3d 6c 1c 39 3c ae bd f8 3c 02 e9 cb 3b
       0.07835863 0.01129828 0.030363884 0.006222845
000010 50 82 b6 39 84 f1 82 3d f8 84 33 3d c0 14 21 bd
       0.00034810835 0.06393722 0.04382798 -0.03932643
000020 77 f5 2b 3a 7a 52 ac bd 4b a1 45 bc 23 16 ba 3c
       0.00065597094 -0.08414169 -0.012062381 0.022715634
000030 1f bf 9c bd 62 15 5e bb 1a a3 c4 3d 99 1f 96 3a
       -0.07653641 -0.0033887257 0.09601422 0.0011453509
000040 e5 80 fa bb be 33 0d bc e1 c3 1e 3b 89 ac 47 3a
       -0.00764476 -0.008618293 0.002422564 0.00076169573
000050 89 fa 26 38 55 62 14 3c e7 7f b9 bb 54 3a e0 3c
       3.9810813e-05 0.009056647 -0.005660999 0.027371563
000060 99 c3 be b6 50 4d 86 ba 2d c9 7a 3c 78 79 a4 3b
       -5.685212e-06 -0.001024643 0.015306753 0.005019363
000070 1c 40 c4 b7 cd bf 0a bb 98 17 e4 3c 16 00 a0 bc
       -2.3394874e-05 -0.002117145 0.027843282 -0.019531291
000080 d5 6d a0 bc b5 3b 51 bd ca 5c 27 bb 5a cb cf b9
       -0.019583622 -0.05108233 -0.0025537484 -0.00039633625
000090 39 31 83 3d 0e 13 b1 bb b4 53 0d be 4e e4 2e be
       0.06405873 -0.005403883 -0.13801461 -0.17079279
0000a0 b0 bd 7d 3d 1f 74 0a bd c1 ea 5b 3a d1 9d 49 bc
       0.06194848 -0.033802148 0.0008389168 -0.012305693
0000b0 89 3b 0c 3c 6a 66 ab 3a 6e b8 3e 3c 9f 1d 21 bd
       0.008559116 0.0013076786 0.011640651 -0.03933489
0000c0 a2 40 16 bc be a9 c1 bc c0 b8 a4 3d 38 82 86 3b
       -0.009170683 -0.02364051 0.08043051 0.0041048788
0000d0 53 3d 6b b9 d8 3a 8d bc 64 2d 53 39 4a 5c ff bc
       -0.00022434191 -0.017239973 0.00020139437 -0.031171937
0000e0 f0 20 56 bb 1c be e3 3d e0 93 3a ba 05 2a 72 3d
       -0.003267344 0.11120245 -0.0007117372 0.059122104
0000f0 9e 47 5e 3c 23 19 6e 3a f0 4b 08 bc 4c e6 43 3c
       0.01356688 0.0009082725 -0.008318886 0.0119567625

onnx::Conv_666 f4 [13]
000000 ca 9d 25 3c 33 fd 60 3d 45 e7 65 3d c1 29 8b bc
       0.010108421 0.05492897 0.05612876 -0.016987683
000010 1c 91 de b9 5a ba 9f bd 72 db 23 3d 0e 3b 88 bc
       -0.00042451255 -0.077992156 0.0400042 -0.016629722
000020 67 e3 84 3d 7d 54 b1 bb 09 73 1f 3d 99 c4 b1 3b
       0.06488686 -0.005411683 0.038928065 0.0054250476
000030 8e 41 01 3c
       0.007889165

onnx::Conv_669 f4 [13]
000000 b0 4f d6 3c e0 1d bf 3c 08 05 96 bd f6 69 d8 3d
       0.026161045 0.023329675 -0.073251784 0.105670854
000010 74 8d 92 bc ae 3a 9d 3d b7 58 9d bd cd 21 1a bb
       -0.017889716 0.07677208 -0.07682937 -0.0023518682
000020 34 d8 c0 bc 95 72 09 bb a0 7b 81 bd ff 14 9d bc
       -0.023540594 -0.0020972837 -0.06322408 -0.01917505
000030 76 3c c2 3d
       0.09484188

onnx::Conv_672 f4 [64]
000000 22 79 3d 3d bf 7a eb bd 0b c7 c0 bc 46 fc 79 bb
       0.0462581 -0.11498021 -0.023532411 -0.0038144751
000010 49 66 a1 bc 12 4d db 3b 62 c4 2b bc 05 ee 48 bd
       -0.019702094 0.006692537 -0.010483833 -0.049055118
000020 ec 8d 9e bb 8a 8a 84 3b c1 36 87 ba 5f b2 97 3c
       -0.0048386957 0.0040448355 -0.0010316 0.018517671
000030 a5 f5 54 3c a5 e9 53 bc 5b 3c a4 b8 48 1c c3 bb
       0.012998019 -0.012934123 -7.8313715e-05 -0.005954299
000040 7d 36 b9 3c 90 46 54 bd 22 12 49 3d ba c7 3f 38
       0.02260899 -0.051825106 0.04908956 4.572396e-05
000050 a0 ab 83 bc 61 18 94 bb 4d 23 48 3d 51 81 9d b8
       -0.016073048 -0.0045195078 0.04886179 -7.5104304e-05
000060 b0 9f e4 3c 3f df 9d 36 8e 83 a3 b7 f5 a8 16 bd
       0.027908176 4.704954e-06 -1.9492374e-05 -0.036782224
000070 ad 87 90 bb 28 17 ca bc da 99 6c bd 03 c7 fe 3a
       -0.004410705 -0.024669245 -0.05776391 0.0019437972
000080 6a 7b 70 bc 8a 41 8d bc 33 68 7a bc 5a 3c f7 3a
       -0.014677862 -0.017243166 -0.015283632 0.0018862591
000090 2c f0 87 bb 3f 02 8a bd e0 43 3f 3c ba 35 26 3c
       -0.0041485038 -0.0673871 0.0116738975 0.010144645
0000a0 b9 06 13 bd 19 fc b4 3b 97 66 d7 bd 67 42 09 bd
       -0.035895083 0.0055232164 -0.10517614 -0.03351059
0000b0 54 3d 14 ba c5 7b ca b5 fa c2 07 3d c7 ac 44 39
       -0.00056548906 -1.5086194e-06 0.03314493 0.00018756381
0000c0 b9 7e d3 39 cb 1f 25 3c 6b 1b 01 bd 4a 10 ed 39
       0.00040339472 0.010078381 -0.03152029 0.000452163
0000d0 93 65 b6 bd 8b 76 e1 3a 82 0d 52 ba 0a 4b 1b bb
       -0.089060925 0.0017201466 -0.0008012877 -0.002369585
0000e0 b4 fd 8e bb 07 5b d8 3c 89 4c 29 ba d8 ac 6a bb
       -0.00436374 0.026410593 -0.0006458243 -0.003580859
0000f0 ba f4 e4 ba fd 66 1e 3b 19 c6 97 ba da e8 d5 38
       -0.0017467954 0.0024170273 -0.0011579423 0.000102000035

onnx::Conv_675 f4 [13]
000000 5b 2a ac bd 59 91 1b 3d fc a7 28 bc 8f e6 01 3d
       -0.08406516 0.03798041 -0.010293957 0.03171402
000010 7e 0c 95 3d 1d 81 f5 bb 35 24 d9 bc 8f e6 09 ba
       0.07277773 -0.007492198 -0.026506523 -0.0005260491
000020 bd 72 64 bc 68 d9 b8 3b 2f 0b 68 bc 1b 14 ab 3b
       -0.013943371 0.005641151 -0.014162823 0.0052209026
000030 b1 91 06 bc
       -0.0082134465

onnx::Conv_678 f4 [13]
000000 12 06 b3 3d 44 b5 f4 bb e6 16 88 bc 1c 2d 4d 3c
       0.08741392 -0.0074678976 -0.016612481 0.012522962
000010 a5 8f 01 bc cd 2b 18 3b 70 f2 c9 bb 0c d0 a5 ba
       -0.007907783 0.0023219467 -0.006162934 -0.0012650504
000020 f7 e6 be 3c 2f 70 88 bc 48 e5 b8 bc 00 c5 95 39
       0.023303492 -0.016655056 -0.022570267 0.0002856627
000030 81 9f ba 3a
       0.001423821

onnx::Conv_681 f4 [64]
000000 22 51 b7 b8 6f 3b ee 3b da d8 42 b9 cb 99 b2 bb
       -8.741232e-05 0.0072702686 -0.00018582065 -0.0054504625
000010 7b 49 50 bc a3 13 35 3b f5 55 34 b7 12 6e cf 3a
       -0.012712832 0.0027630113 -1.07488495e-05 0.001582565
000020 27 2b 0d 3d 8b 00 0a 3d 8c fa ad 3b 1c 4b 2a 3d
       0.03446498 0.033691924 0.0053094085 0.041575536
000030 be e3 a3 bc 67 2c ab b9 f2 52 10 3b 90 30 bd ba
       -0.020006057 -0.00032648744 0.0022022096 -0.0014434028
000040 6a e0 27 3b 75 f4 10 bb e7 f8 95 3c 0a 79 84 bc
       0.002561594 -0.0022118364 0.018307162 -0.016170997
000050 c8 ea f1 b8 d6 fe 61 ba da 42 9c 3d aa 84 e6 bb
       -0.00011535507 -0.00086210424 0.076299384 -0.0070348578
000060 04 3a 2a 3d e4 30 3c bb c8 01 f3 ba d6 a9 00 bd
       0.041559234 -0.0028715665 -0.001853996 -0.03141197
000070 45 6e 65 3d 06 16 d1 bc 61 ca 27 3c 8d df 02 bb
       0.056013364 -0.025523197 0.010241122 -0.0019969672
000080 1b 37 52 bd bc 58 cb bc cd 8d f2 ba 16 36 84 3b
       -0.051322084 -0.024822585 -0.0018505395 0.004034768
000090 7b a6 8a bb f9 a2 84 3c ca 73 8a 3a c1 a5 9c 3b
       -0.004231272 0.016190993 0.0010563072 0.0047805016
0000a0 03 1c f4 39 a2 13 59 bb ca c5 2a bc 07 0c 0c bd
       0.00046560177 -0.0033123274 -0.010423133 -0.034191158
0000b0 ff 8f a9 39 12 91 43 3a 57 8d 0b 38 41 af fc 3a
       0.00032341477 0.0007460277 3.3271815e-05 0.0019278304
0000c0 0d e2 b9 bc 1e bf 59 3c 4b f0 f8 bb e8 ff eb bc
       -0.022690797 0.013290195 -0.0075970045 -0.028808549
0000d0 65 90 9c bb 86 0c 0e 39 b4 9f ea bc 08 5d 55 bc
       -0.0047779554 0.0001354684 -0.028640606 -0.013022669
0000e0 9e 71 92 bc a8 e7 d8 3c f9 19 b3 bb d6 01 d0 38
       -0.017876443 0.02647765 -0.0054657427 9.918555e-05
0000f0 ac 42 15 3c 5e f5 77 3c d5 7f 9a bb 9f 1b b7 bc
       0.009110134 0.015134184 -0.004714946 -0.022352038

onnx::Conv_684 f4 [13]
000000 ac 5c 35 be 6d ac 21 3d c2 16 88 bd a5 a5 9e bc
       -0.17711133 0.03947108 -0.06644966 -0.019366095
000010 bc cf b3 bd 3a 2d 0b bd b2 f8 ae 3c 81 3a 8f bd
       -0.087798566 -0.03397868 0.021358822 -0.069935806
000020 09 2d 77 bd b7 87 b4 bb b3 8c e1 bd b2 f5 f4 3d
       -0.060345683 -0.0055093425 -0.11013164 0.11960925
000030 70 c1 02 be
       -0.12769103

onnx::Conv_687 f4 [13]
000000 e0 a4 71 3c e7 1e d5 3d 7d e4 0c 3e fc b4 0b 3e
       0.014748782 0.10406285 0.13759036 0.13643259
000010 9c d0 b5 bd d3 07 e1 3d b8 08 2c be b0 84 58 3c
       -0.0887768 0.109878205 -0.16800201 0.013215229
000020 84 65 5f 3e 43 68 5e bb 6a 41 e1 bc 65 02 e8 3e
       0.21816069 -0.0033936657 -0.027497012 0.45314327
000030 0e 90 02 be
       -0.12750265

onnx::Conv_690 f4 [64]
000000 60 24 93 39 d3 7d b5 3c 3a 2b 14 3c 90 51 76 3c
       0.00028065126 0.022154724 0.009043509 0.015034094
000010 9c 41 d5 bd e5 d0 98 3e 24 26 0f 3c 6f 36 66 bd
       -0.104129046 0.29846874 0.008737121 -0.056204256
000020 5b 62 f2 bb 46 31 f4 bc 18 27 83 3d 49 80 fb bc
       -0.007396979 -0.029808652 0.06403941 -0.03070082
000030 d6 0f 25 3d 24 05 cd bc 91 36 f2 3d 63 a1 d7 3c
       0.040298305 -0.025026865 0.11826814 0.026322072
000040 67 d8 2f 3d f7 17 0a bd 9a fb 6d 3e ce 82 db bc
       0.042930987 -0.03371426 0.2324051 -0.026795771
000050 7b ee 59 bc 3e 08 54 3d 6c 74 17 3d df 06 29 3d
       -0.013301487 0.051765673 0.036976263 0.04126632
000060 bb ad f7 bb c6 b5 8d 3d 0a 06 86 3c 7e 96 82 3b
       -0.007558552 0.06919436 0.016360302 0.003985225
000070 f6 2c 79 bd 44 8f 50 3d 60 18 34 bd 16 71 30 bd
       -0.060833894 0.05091788 -0.04396856 -0.043076597
000080 c1 73 1d 3c 38 4c 64 3c 20 64 5c bd 7c 02 72 bd
       0.009610117 0.013934188 -0.053806424 -0.0590844
000090 2e 14 13 bb 16 a8 46 3c 48 bc 2f 3e 52 7e f5 3c
       -0.0022442448 0.012125036 0.17161667 0.02996746
0000a0 5d 5f ab 3d e2 e0 09 be b9 54 72 3d 0c 54 55 3b
       0.083677985 -0.13464692 0.05916283 0.0032551317
0000b0 20 9d b3 3d 6e eb 3b bd f6 e4 0f bd 90 e9 ac bd
       0.087702036 -0.04587882 -0.035130464 -0.08442986
0000c0 db a3 7f 3f 51 43 b0 bc fc e0 45 bd 77 c8 e9 3b
       0.998594 -0.021516474 -0.048310265 0.007134493
0000d0 0c c4 7e bb 10 15 93 3c 44 fc 0a bc 8c 6d 2e bd
       -0.0038874177 0.01795438 -0.008482996 -0.04258494
0000e0 47 71 86 3e 41 8c 6b bb f6 02 fa 3c 09 6d 94 bc
       0.262583 -0.0035941752 0.03051899 -0.018118398
0000f0 ce 45 06 3d 99 7e 80 3c 49 bd 09 be ec 44 d9 3c
       0.032781415 0.015685366 -0.13451113 0.026522122

onnx::Conv_693 f4 [16]
000000 da 36 6b be d7 84 1f 41 9f cb d8 3f 43 5b 71 c0
       -0.22970143 9.969932 1.693714 -3.7711952
000010 3d c0 3b 40 ca e7 12 bf 25 63 76 3f d4 90 05 40
       2.9336083 -0.5738493 0.9624503 2.0869646
000020 fe b4 ff 3f e3 3e a1 c0 0a e1 9b 40 bd cd 15 c0
       1.997711 -5.0389266 4.8712206 -2.3406823
000030 eb 7a 2b 40 80 80 03 c0 57 31 51 c0 ff 01 f1 3f
       2.6793773 -2.054718 -3.2686365 1.8828734

onnx::Conv_696 f4 [64]
000000 be eb 0e 3f 1d 18 bc 3e 9f 83 d4 3e 26 8c 06 bf
       0.55828464 0.36737147 0.4150667 -0.525576
000010 8f a8 89 bf 53 ba 6e bf f6 04 b6 be ae 3f 05 40
       -1.0754565 -0.9325306 -0.3555066 2.0820117
000020 e0 20 a6 bf da 49 89 3e 2e 7f 81 bd 8d 48 a9 bd
       -1.2978783 0.26814157 -0.06323086 -0.08265791
000030 ac 8e 2e 3f a0 4d 8e 3b 0a 06 e4 3e 3b 7f 1b bf
       0.6818645 0.0043427497 0.44535857 -0.60741013
000040 38 8d d9 be 17 76 df be 34 0d bc 3e 32 2f 41 3f
       -0.42490554 -0.43644783 0.36728823 0.7546264
000050 3d cd 4e bf 26 46 21 3e fa 16 73 bf 56 59 e4 3d
       -0.8078192 0.15749416 -0.94956934 0.11149852
000060 70 d7 a0 3e 2a f4 dc bf 19 4b 36 bf d5 d0 57 bf
       0.31414366 -1.7262013 -0.7120834 -0.8430303
000070 02 f5 0e bf 07 b8 11 3f 15 c3 b3 bf ad 7a fd 3e
       -0.558426 0.5692143 -1.4043909 0.49507657
000080 4c d7 68 3e 73 08 aa be 1f dd 3c bf 61 c1 01 3f
       0.22738379 -0.3320957 -0.73774904 0.506857
000090 7c b9 d6 bd 0d 16 f9 3e 94 7b 60 be 79 5e 93 be
       -0.10484597 0.48649636 -0.21922141 -0.28783014
0000a0 fb fb 03 3f 16 41 d6 3e 21 59 02 3f c1 a2 35 be
       0.51556367 0.41846532 0.5091725 -0.17737867
0000b0 af b9 c2 3f fa 53 1e 3f 2d 1f 8c bf 8f 7b 80 bf
       1.5212916 0.6184689 -1.0947014 -1.0037707
0000c0 f3 2b e7 3e 44 81 44 bf 82 2d 9d be 59 df e2 be
       0.45150718 -0.76759744 -0.30698782 -0.44311026
0000d0 de 2a 79 3f 6b 08 10 bf bd 77 ee bd f0 18 9a be
       0.97331035 -0.56262845 -0.11643932 -0.3009715
0000e0 01 aa a3 be ca f7 39 bf 77 0b a3 3e ea 57 10 bf
       -0.3196564 -0.7264372 0.31844684 -0.56384146
0000f0 e2 d1 80 3d 92 67 31 bd aa 1b d9 be 53 51 c0 3d
       0.06290032 -0.043311663 -0.42403919 0.09390511

onnx::Conv_699 f4 [231]
000000 00 95 e0 39 32 41 8a bd bc b7 88 3d a3 6c 01 bd
       0.00042835623 -0.06750716 0.066756696 -0.031597745
000010 83 a7 3d 3d b4 9a 32 3c 51 d8 2d bc 5e c4 27 3b
       0.04630233 0.010901142 -0.010610656 0.0025599222
000020 90 00 a3 bd d7 08 1a bd f4 fc 8b bb 9b 1d ce bd
       -0.07959092 -0.037606087 -0.0042720977 -0.100642405
000030 d8 8e c6 bb 32 80 d0 bd a1 98 6e bb a8 b7 41 bd
       -0.006059509 -0.10180701 -0.0036406892 -0.04729429
000040 7d 88 70 bd f8 09 80 bd c4 77 3c bd 6e a4 f7 3b
       -0.058723915 -0.062519014 -0.046012655 0.0075574433
000050 0d 45 41 bb 8c 9a 46 bd 7e 6e af bc e4 f8 07 3e
       -0.002949062 -0.04848723 -0.021414991 0.13278538
000060 c4 1c fe bc ba 01 4d bd ae ae 91 3c 08 79 34 3b
       -0.031019576 -0.050050475 0.01778349 0.002753796
000070 12 b1 98 bc b0 c6 2e bb 47 ac a6 bd 41 fd 5c bb
       -0.018639121 -0.002666872 -0.08138328 -0.0033720287
000080 34 4f d7 3c 5c dc 47 bd 39 6e ac bc 8c da 91 bc
       0.026282884 -0.048794135 -0.021048652 -0.017804407
000090 e5 12 41 3d f5 d6 1f bd 8e 7d 2e bd aa 07 87 3d
       0.04713716 -0.03902336 -0.042600207 0.06593259
0000a0 22 1b 1a 3d 70 bc 3d bc 4d d6 4e 3d 11 e2 a2 bd
       0.037623532 -0.0115805715 0.050497342 -0.07953275
0000b0 40 ab fe 3b 15 2a 13 3c bd 79 94 bc 60 71 46 3d
       0.0077718794 0.008982201 -0.018124456 0.048447967
0000c0 f3 4f 9c bb 07 79 77 3d 6b 21 d9 bb 66 f8 8c 3c
       -0.004770273 0.060418155 -0.006626298 0.01720829
0000d0 5b c9 e8 bc 56 dc 1e bd 98 dd bc bc 30 f5 f6 3a
       -0.028416326 -0.038784347 -0.023054883 0.0018841382
0000e0 2c 1e 78 bb ee 84 6e bb a4 4d 11 3d ba 39 f3 3c
       -0.003785978 -0.003639515 0.035474434 0.029690612
0000f0 06 5c 89 3c 5e 4d 27 be 10 6b 26 bd 9a b1 6a bd
       0.016767513 -0.16338107 -0.040629447 -0.05729828
000100 7a d4 be bd 84 48 f0 bc f6 dd e1 bc c9 41 69 bd
       -0.093178704 -0.029331453 -0.02757166 -0.056947503
000110 5a 1a ae bc bc 60 6d bd 2a c2 29 bd 3d 88 8b 3d
       -0.0212528 -0.05795358 -0.041444935 0.06813095
000120 02 dc 7a 3d 55 92 60 bc ea 0d 65 bc 78 e9 f3 3b
       0.061244972 -0.013706763 -0.013980368 0.007443603
000130 e9 37 4a 3d c9 5b 0f bc 61 06 e3 3c 87 08 11 be
       0.049369726 -0.008749911 0.027713003 -0.14163409
000140 8c 49 4d bc 52 97 40 3d fe 80 91 bd 82 ee 09 3e
       -0.012529742 0.04701931 -0.071046814 0.1346989
000150 40 af 5d bd 9e 7c ab bd 14 de e8 bb 99 5a 2e 3d
       -0.05412221 -0.08373378 -0.007106552 0.04256687
000160 43 33 c4 bc 42 1e 3f 3c 68 6c 52 bb 9c 86 30 bd
       -0.023950225 0.011664929 -0.0032108072 -0.043097124
000170 3f 20 45 3d f6 23 0b 3c 25 af d3 bc a6 27 94 bb
       0.048126455 0.0084924605 -0.025840351 -0.004521328
000180 78 39 75 3d 83 9d 8c 3d 00 6a ca bb 0d 9e 50 bd
       0.05986926 0.068659805 -0.006177187 -0.05093198
000190 ab ea de bc cb 07 ae 3b c8 fb 01 bb ae 1c e5 3c
       -0.027211508 0.0053109876 -0.0019833911 0.027967777
0001a0 26 95 8c 3d a8 fc 98 3c 74 35 8f bc 38 73 30 3d
       0.06864385 0.018675163 -0.017481543 0.04307863
0001b0 6a 2a ec 3c 50 04 6f bd 12 a8 53 bc a6 ef 81 3d
       0.028828818 -0.058353722 -0.012918489 0.063445374
0001c0 d6 f9 b8 bc e6 92 28 bb 08 7d ce 3c 25 2e ae bc
       -0.022580069 -0.0025722324 0.025206104 -0.021262238
0001d0 a1 d4 d4 bb d4 d0 1d 3c 0f 87 58 bc b5 dd ce bd
       -0.006495074 0.009632308 -0.013215794 -0.10100881
0001e0 65 aa 92 bc 13 91 9e bd 79 68 93 3c b0 c6 91 3d
       -0.017903516 -0.077425145 0.017994152 0.07117975
0001f0 21 df 9c 3d 72 91 b2 bc 7e 1d 96 3b fe 6b ee bc
       0.07659746 -0.02179787 0.0045811525 -0.029104229
000200 2c 7d 52 3d d7 a0 43 3c 58 49 4c bb e3 f4 87 3d
       0.051388904 0.011940203 -0.0031171646 0.06638505
000210 2e 6f ed ba 54 ca 64 3d d2 ce 35 3d f5 b8 0d be
       -0.0018114799 0.055857018 0.044386692 -0.13840087
000220 0c f6 b5 3c bd dd 17 3d 68 98 17 3d cc 01 d7 3c
       0.02221205 0.0370767 0.03701058 0.026245974
000230 a7 1f 7c 3d ce 1e 00 3d 31 ea ad bc 6c a9 8f 3c
       0.061553624 0.031279378 -0.021229835 0.017536841
000240 ad b0 7a bb 97 3f e2 bd bd b7 7e bd a8 d9 05 bd
       -0.003825228 -0.11047285 -0.062186945 -0.032678276
000250 83 72 5f bd d7 48 11 bd d8 18 79 3d e3 fa 84 3d
       -0.054552566 -0.035469856 0.06081471 0.06493165
000260 3e 74 31 3e a2 72 f7 bb c1 bb 67 bc b0 3b 9a bc
       0.17329499 -0.007551507 -0.014143885 -0.01882729
000270 88 3f 06 3d d9 38 23 3d 46 1c c3 3c ce 27 b3 bc
       0.032775432 0.039849136 0.023817193 -0.021869566
000280 cb 39 04 3c 72 2c fc 3c 04 86 a9 3b 7a 0f 6c 3d
       0.00807042 0.030782912 0.0051734466 0.057631947
000290 ab 34 02 bc be e3 7e 3d 07 64 73 bc 62 6b 06 bc
       -0.007947127 0.06222891 -0.014855391 -0.008204313
0002a0 84 17 95 3d dc 9f 61 bd 76 d9 0e 3d 88 02 ad bc
       0.07279876 -0.055084094 0.034875356 -0.021119371
0002b0 a3 7a 6e bc 2d 33 0f 3d 94 04 f4 bc 00 d0 27 b7
       -0.014555606 0.034960914 -0.02978734 -1.0002404e-05
0002c0 e5 2d 79 bb 3a 31 48 bd 92 43 b8 bb be 3d 18 bd
       -0.003802174 -0.04887507 -0.0056232894 -0.037168257
0002d0 e4 27 a7 bb e2 a4 3f bb 73 07 1f bb bc b1 9e bc
       -0.005101191 -0.0029242565 -0.0024265915 -0.01937186
0002e0 94 3a 10 bc 0e 35 9a 3c 2b e5 1a bc 7c 86 a3 3d
       -0.008803029 0.018824127 -0.009454052 0.07984635
0002f0 86 25 2a bd 1a e5 79 bc f4 d4 4b 3c 04 0d 41 bc
       -0.04153969 -0.015252376 0.012440909 -0.011782888
000300 81 aa 2a 3d 8a 8b d1 bb 01 c4 31 3d 2e a0 46 bb
       0.04166651 -0.006394808 0.043399815 -0.0030307877
000310 20 b7 2a 3d ca ca e7 bc bf 6f 17 bd c7 36 3f bd
       0.041678548 -0.02829494 -0.036971804 -0.0466831
000320 4a 62 de 3c 6c 82 f3 bc e2 96 c5 3c e3 f3 b1 bc
       0.027146477 -0.029725276 0.024119798 -0.02172274
000330 cb 6b 66 bc 7f e9 43 bd 31 92 03 bd 59 66 de 3c
       -0.014063786 -0.0478301 -0.03212184 0.027148413
000340 17 f7 32 bd c0 36 56 3b 02 c4 9f 3c 5a 87 7f 3c
       -0.043692674 0.0032686442 0.019502643 0.015596235
000350 03 60 a9 3c f7 e7 89 bb 2c fd 32 3d 9b 14 3d 3d
       0.020675665 -0.0042085606 0.043698475 0.04616223
000360 c9 91 4f bb d5 f2 11 be 61 82 a8 3c f0 fd c1 3b
       -0.0031672588 -0.1425279 0.020569982 0.0059201643
000370 b0 c8 26 3d a5 f5 57 bd 27 44 e4 bd 9f 4d 8b bb
       0.040718734 -0.0527245 -0.111458115 -0.0042511965
000380 fd aa c8 3b 75 0a f7 bb f8 ee 1c bd a2 63 3d bd
       0.006123899 -0.0075390884 -0.038313836 -0.046237595
000390 84 27 f0 3b c2 07 f6 3c ff ff 7b 3c
       0.0073289294 0.030032996 0.015380858

onnx::Conv_702 f4 [231]
000000 3f f8 e8 3b dc 67 01 bd 70 0c 2c 3e 20 c6 40 3b
       0.0071096714 -0.03159319 0.1680162 0.0029414967
000010 0f 47 27 3e 38 5f 10 bd 39 58 5c bb 6a e2 c6 3d
       0.163357 -0.035247058 -0.003362192 0.09711154
000020 00 54 e6 39 76 a3 6c bd 46 82 51 3e 70 c8 a0 bc
       0.00043931603 -0.057773076 0.20459852 -0.019626826
000030 80 2b f7 3a db ae d9 bc 73 54 ab ba fe c9 21 bc
       0.0018857569 -0.026572635 -0.0013071432 -0.009874819
000040 e7 23 65 bc ad ef b8 bc a4 4e ff bc 49 d7 08 3e
       -0.013985611 -0.022575224 -0.031165428 0.13363375
000050 bb 51 5d 3a 58 65 30 bc e2 22 12 bc 93 3b 5d 3e
       0.000844266 -0.01076635 -0.0089194495 0.21604757
000060 dc a3 1c bd d9 ab 1e 3e 38 ce bb 3d 83 5c aa 3d
       -0.038242206 0.15495242 0.091701925 0.083184265
000070 c3 9c b5 3d 6e 40 0e be 46 7a ef bd 14 cb 91 ba
       0.088677905 -0.13891765 -0.11693244 -0.0011123144
000080 d0 43 00 3e bb 1e b2 bb a6 d5 f3 b9 49 fd fc ba
       0.12525868 -0.0054357923 -0.00046507752 -0.0019301559
000090 29 8a a5 bc 05 e5 1d bc 45 22 5c bc 88 af d7 bb
       -0.020207481 -0.009637122 -0.013435905 -0.0065822043
0000a0 e2 35 30 3e 51 ab 92 bc 70 50 7c bb 22 79 27 3e
       0.17208055 -0.017903956 -0.0038500093 0.16354802
0000b0 8e 22 a0 bc 74 b2 a4 bb f4 ec 26 bb b4 e6 44 3e
       -0.019547727 -0.005026156 -0.0025470825 0.19228631
0000c0 e9 c6 02 bb 18 3d 30 bc f3 be d3 ba 0a d3 b3 bd
       -0.0019954985 -0.010756753 -0.001615493 -0.08780487
0000d0 1f 07 e9 bd aa f9 94 bb b6 f8 fc 3c 52 8b 70 3d
       -0.11378311 -0.004546364 0.030880313 0.058726616
0000e0 a1 f7 98 ba 15 98 25 ba ed b2 da bc 56 dc 89 bd
       -0.0011670479 -0.00063169125 -0.026696647 -0.06731479
0000f0 4c 09 5f bb d9 b4 bc be b6 26 43 bc b5 a1 14 3e
       -0.003403264 -0.36856726 -0.011911085 0.14514811
000100 60 c6 7e bb 6c be d3 3d c0 c1 21 3e 91 0e 06 bd
       -0.0038875565 0.103390545 0.15796566 -0.032728735
000110 63 3a 1c bd 68 1c 41 3e 57 f1 34 3e ba a0 2f 3e
       -0.03814162 0.18858492 0.17670189 0.17151156
000120 4e 3b 58 3d 4c 84 ea ba 6a e1 0b 3c 80 f4 27 3e
       0.052790932 -0.0017892211 0.00853763 0.16401863
000130 a8 71 26 bb 73 ae 7d ba 48 79 28 3e aa 04 fb 3d
       -0.0025397334 -0.0009677179 0.16452515 0.12256749
000140 b4 5f 3d bd 5c 3f 11 bd b5 11 36 3e de 16 2c 3e
       -0.046233848 -0.035460815 0.17780192 0.16805598
000150 5b d0 b3 bc cf 5e 19 bd 98 9b bc bb 48 cd 2f bc
       -0.021949938 -0.037443932 -0.005755853 -0.010730095
000160 48 58 25 3e 1e ca db 3d fe a3 01 bd b0 62 15 bc
       0.16146958 0.1073191 -0.031650536 -0.009117767
000170 18 7f 17 3e bc 1b 9d bc 16 f7 ca 3d 44 b0 04 bd
       0.14794576 -0.019178264 0.09910409 -0.032394662
000180 68 e2 34 bd 5d fa 07 bc 33 5d 00 bd 60 37 ba 3b
       -0.04416123 -0.008299437 -0.03133888 0.0056828707
000190 58 5b f4 3d e6 df ea bc f7 00 eb 3d 7a 0a e0 bd
       0.11931485 -0.028671216 0.114747934 -0.10939498
0001a0 92 b8 4a 3d 79 f0 65 be c2 b5 93 ba 4c d8 60 bd
       0.049492426 -0.22455014 -0.0011269378 -0.054893777
0001b0 ff 35 d4 3d 64 d1 a1 3c 5b 3a 0c 3e 65 29 29 bc
       0.103618614 0.019753166 0.13694136 -0.010324811
0001c0 48 80 dc bb 2b 1a 89 ba 90 25 f9 3d 92 7d 07 bb
       -0.0067291595 -0.0010460069 0.121653676 -0.002067421
0001d0 54 29 90 bd 8a 61 e2 3d 46 f8 4a 3e 58 4b 45 3e
       -0.07039133 0.1105376 0.19821271 0.19267023
0001e0 d7 b5 c1 3d d9 1f 36 bc c2 43 a3 bb 32 47 02 3e
       0.09458511 -0.0111159915 -0.0049824426 0.12722471
0001f0 65 e1 0b 3e 8e 5a 02 bc 61 0a 2e bd eb 21 0e 3e
       0.136602 -0.00795616 -0.042490367 0.13880126
000200 24 45 13 3d ae 41 02 3e 78 81 b1 3d 40 00 d9 bc
       0.03595461 0.12720367 0.08667272 -0.026489377
000210 36 7f e1 bc e5 74 04 3e a1 d9 f4 bd 8a 91 6a 3e
       -0.02752648 0.12935217 -0.11955572 0.22907081
000220 70 e4 59 3b 06 81 11 3e 00 8c f0 3d 71 dd 43 3e
       0.0033247732 0.14209375 0.11745453 0.19127442
000230 43 e5 ae 3d f0 c9 89 3d 2c 35 17 bb c0 fc a2 3a
       0.08539822 0.0672797 -0.0023072464 0.0012434945
000240 80 f6 01 bb 71 36 98 bc 13 17 d7 bb fe be a1 bd
       -0.0019830763 -0.018580647 -0.00656403 -0.07897757
000250 d6 05 80 bd d9 03 9a bd 08 ef 0c 3e 8b 68 89 bc
       -0.06251113 -0.07520265 0.13763058 -0.016773483
000260 98 22 83 3e f7 4f 68 bb 25 b2 52 bb 66 7f ae bc
       0.2561233 -0.0035448053 -0.003214964 -0.021300983
000270 e8 cf b3 3d 2a 1c 63 bd 64 00 e7 bd 63 62 ea bc
       0.08779889 -0.05544678 -0.112793714 -0.028611368
000280 d8 a5 3a bc 59 84 d5 3c 9e 7c 07 3e 57 b1 0d 3e
       -0.011392079 0.026064085 0.13231131 0.13837181
000290 a9 a0 8f bb 30 b2 7c bb a4 b1 ec bc 57 04 3f bc
       -0.004383166 -0.0038558356 -0.0288933 -0.01165875
0002a0 a0 62 0c 3e 34 cf 4d bc 80 2e 46 3e 4c 9d 2a bc
       0.13709497 -0.012561608 0.19353676 -0.010413479
0002b0 6c d1 0b 3d 04 6b 49 bc bf e5 cb bb 75 09 1c 3e
       0.034135267 -0.012293581 -0.006222456 0.15237983
0002c0 36 f8 c3 ba 61 9d 9f 3d 82 ce 2d bb 01 8f f1 3d
       -0.0014951292 0.077936895 -0.0026520793 0.11794854
0002d0 2b 31 2c bd e7 2d b7 b9 b8 88 45 ba 30 fe f1 3d
       -0.042039078 -0.0003493868 -0.00075353263 0.118160605
0002e0 29 46 5d bb e4 44 83 bd 63 57 5b bb f7 78 5a 3c
       -0.0033763743 -0.06409624 -0.0033468835 0.013334504
0002f0 50 bf 58 bd 4e a0 ff ba cc b0 84 bc 1e 88 c5 3d
       -0.052916825 -0.001950273 -0.016197585 0.09645103
000300 b4 46 b8 3c d6 0f c7 bc 38 6f d3 3d 50 ad a3 b8
       0.022494651 -0.024299543 0.10323948 -7.804728e-05
000310 b6 db 8d bc eb ff 31 bc f4 6e 0e bc cc 85 0a 3e
       -0.01731668 -0.010864238 -0.0086934455 0.13527602
000320 a7 95 9d 3d 4e ac 63 3e 3c 21 a7 bd 32 01 ba 3d
       0.076945595 0.22233698 -0.08160636 0.09082259
000330 44 c7 e3 bb 45 e6 f0 bc 14 fc 53 3e 19 a9 ed 3d
       -0.0069512445 -0.029406676 0.20701629 0.116045184
000340 4a 5b 5f bc 4a cf 02 bd d0 15 bc bd 82 97 8a 3d
       -0.013632605 -0.031935968 -0.09183848 0.06767179
000350 f5 e8 c7 bc 57 e3 00 ba e0 c5 0f bd 5e 27 46 3e
       -0.024403075 -0.0004916689 -0.035100818 0.19350955
000360 75 70 80 39 c9 23 86 bd 78 00 e2 3d cc df 7b bd
       0.0002449785 -0.06549794 0.11035246 -0.061492726
000370 48 bd 1f 3e 80 42 01 bc 6a 43 1c be d7 12 9d ba
       0.15599549 -0.00788939 -0.15260091 -0.0011983764
000380 35 ac b8 3d 82 bb 20 bb ea eb 83 bb b1 b5 1c bc
       0.09017221 -0.0024525826 -0.004025926 -0.009564803
000390 b2 aa b3 3d ae f9 e2 bd 72 e5 4a 3b
       0.08772792 -0.11082779 0.0030959514
